Number of cores: 256
Model: "sequential"
_________________________________________________________________
Layer (type)                 Output Shape              Param #   
=================================================================
lstm (LSTM)                  (None, 1, 100)            100400    
_________________________________________________________________
dropout (Dropout)            (None, 1, 100)            0         
_________________________________________________________________
lstm_1 (LSTM)                (None, 1, 100)            80400     
_________________________________________________________________
dropout_1 (Dropout)          (None, 1, 100)            0         
_________________________________________________________________
lstm_2 (LSTM)                (None, 100)               80400     
_________________________________________________________________
dense (Dense)                (None, 150)               15150     
=================================================================
Total params: 276,350
Trainable params: 276,350
Non-trainable params: 0
_________________________________________________________________
Train on 31999 samples, validate on 8000 samples
Epoch 1/200
31999/31999 - 22s - loss: 0.7638 - val_loss: 0.7748
Epoch 2/200
31999/31999 - 14s - loss: 0.7257 - val_loss: 0.7546
Epoch 3/200
31999/31999 - 17s - loss: 0.7085 - val_loss: 0.7447
…
